WARNING:root:This caffe2 python run does not have GPU support. Will run in CPU only mode.
128 128
65 128
37 128
20 65
FeedForwardCNN(
  (model): Sequential(
    (0): Conv2d(6, 16, kernel_size=(7, 7), stride=(1, 1), padding=(3, 3))
    (1): ReLU()
    (2): LayerNorm(torch.Size([4, 16, 50, 150]), eps=1e-05, elementwise_affine=True)
    (3): Conv2d(16, 16, kernel_size=(5, 5), stride=(2, 1), padding=(3, 2))
    (4): ReLU()
    (5): LayerNorm(torch.Size([4, 16, 26, 150]), eps=1e-05, elementwise_affine=True)
    (6): Conv2d(16, 16, kernel_size=(5, 5), stride=(2, 1), padding=(6, 2))
    (7): ReLU()
    (8): LayerNorm(torch.Size([4, 16, 17, 150]), eps=1e-05, elementwise_affine=True)
    (9): Conv2d(16, 16, kernel_size=(5, 5), stride=(2, 2), padding=(3, 3))
    (10): ReLU()
    (11): LayerNorm(torch.Size([4, 16, 10, 76]), eps=1e-05, elementwise_affine=True)
    (12): Dropout(p=0.9)
    (13): Flatten()
    (14): Linear(in_features=12160, out_features=128, bias=True)
    (15): Linear(in_features=128, out_features=128, bias=True)
    (16): Linear(in_features=128, out_features=2, bias=True)
  )
)
epoch 0/9, iteration 0/11194, loss = 63.9509391784668
epoch 0/9, iteration 100/11194, loss = 7.736262321472168
epoch 0/9, iteration 200/11194, loss = 12.439536094665527
epoch 0/9, iteration 300/11194, loss = 39.00912857055664
epoch 0/9, iteration 400/11194, loss = 12.446093559265137
epoch 0/9, iteration 500/11194, loss = 17.258926391601562
epoch 0/9, iteration 600/11194, loss = 2.0440561771392822
…
